…
      )
      (deblocks): ModuleList(
        (0): Sequential(
          (0): DefaultArgLayer(128, 128, kernel_size=(1, 1), stride=(1, 1), bias=False)
          (1): SyncBatchNorm(128, eps=0.001, momentum=0.01, affine=True, track_running_stats=True)
          (2): ReLU()
        )
        (1): Sequential(
          (0): DefaultArgLayer(256, 256, kernel_size=(2, 2), stride=(2, 2), bias=False)
          (1): SyncBatchNorm(256, eps=0.001, momentum=0.01, affine=True, track_running_stats=True)
          (2): ReLU()
        )
      )
      (tasks): ModuleList(
        (0): RPNHead(
          (conv_box): Conv2d(384, 18, kernel_size=(1, 1), stride=(1, 1))
          (conv_cls): Conv2d(384, 2, kernel_size=(1, 1), stride=(1, 1))
          (conv_dir): Conv2d(384, 4, kernel_size=(1, 1), stride=(1, 1))
        )
        (1): RPNHead(
          (conv_box): Conv2d(384, 36, kernel_size=(1, 1), stride=(1, 1))
          (conv_cls): Conv2d(384, 8, kernel_size=(1, 1), stride=(1, 1))
          (conv_dir): Conv2d(384, 8, kernel_size=(1, 1), stride=(1, 1))
        )
        (2): RPNHead(
          (conv_box): Conv2d(384, 36, kernel_size=(1, 1), stride=(1, 1))
          (conv_cls): Conv2d(384, 8, kernel_size=(1, 1), stride=(1, 1))
          (conv_dir): Conv2d(384, 8, kernel_size=(1, 1), stride=(1, 1))
        )
        (3): RPNHead(
          (conv_box): Conv2d(384, 18, kernel_size=(1, 1), stride=(1, 1))
          (conv_cls): Conv2d(384, 2, kernel_size=(1, 1), stride=(1, 1))
          (conv_dir): Conv2d(384, 4, kernel_size=(1, 1), stride=(1, 1))
        )
        (4): RPNHead(
          (conv_box): Conv2d(384, 36, kernel_size=(1, 1), stride=(1, 1))
          (conv_cls): Conv2d(384, 8, kernel_size=(1, 1), stride=(1, 1))
          (conv_dir): Conv2d(384, 8, kernel_size=(1, 1), stride=(1, 1))
        )
        (5): RPNHead(
          (conv_box): Conv2d(384, 36, kernel_size=(1, 1), stride=(1, 1))
          (conv_cls): Conv2d(384, 8, kernel_size=(1, 1), stride=(1, 1))
          (conv_dir): Conv2d(384, 8, kernel_size=(1, 1), stride=(1, 1))
        )
      )
    )
    (rpn_acc): Accuracy()
    (rpn_precision): Precision()
    (rpn_recall): Recall()
    (rpn_metrics): PrecisionRecall()
    (rpn_cls_loss): Scalar()
    (rpn_loc_loss): Scalar()
    (rpn_total_loss): Scalar()
  )
)
2019-06-01 23:57:32,345 Training INFO: No checkpoint found. Initializing model from scratch
2019-06-01 23:57:32,345 Training INFO: extra arguments: {'iteration': 0, 'epoch': 0}
…
