…
      )
      (deblocks): ModuleList(
        (0): Sequential(
          (0): DefaultArgLayer(128, 128, kernel_size=(1, 1), stride=(1, 1), bias=False)
          (1): SyncBatchNorm(128, eps=0.001, momentum=0.01, affine=True, track_running_stats=True)
          (2): ReLU()
        )
        (1): Sequential(
          (0): DefaultArgLayer(256, 256, kernel_size=(2, 2), stride=(2, 2), bias=False)
          (1): SyncBatchNorm(256, eps=0.001, momentum=0.01, affine=True, track_running_stats=True)
          (2): ReLU()
        )
      )
      (tasks): ModuleList(
        (0): RPNHead(
          (conv_box): Conv2d(384, 18, kernel_size=(1, 1), stride=(1, 1))
          (conv_cls): Conv2d(384, 2, kernel_size=(1, 1), stride=(1, 1))
          (conv_dir): Conv2d(384, 4, kernel_size=(1, 1), stride=(1, 1))
        )
        (1): RPNHead(
          (conv_box): Conv2d(384, 36, kernel_size=(1, 1), stride=(1, 1))
          (conv_cls): Conv2d(384, 8, kernel_size=(1, 1), stride=(1, 1))
          (conv_dir): Conv2d(384, 8, kernel_size=(1, 1), stride=(1, 1))
        )
        (2): RPNHead(
          (conv_box): Conv2d(384, 36, kernel_size=(1, 1), stride=(1, 1))
          (conv_cls): Conv2d(384, 8, kernel_size=(1, 1), stride=(1, 1))
          (conv_dir): Conv2d(384, 8, kernel_size=(1, 1), stride=(1, 1))
        )
        (3): RPNHead(
          (conv_box): Conv2d(384, 18, kernel_size=(1, 1), stride=(1, 1))
          (conv_cls): Conv2d(384, 2, kernel_size=(1, 1), stride=(1, 1))
          (conv_dir): Conv2d(384, 4, kernel_size=(1, 1), stride=(1, 1))
        )
        (4): RPNHead(
          (conv_box): Conv2d(384, 36, kernel_size=(1, 1), stride=(1, 1))
          (conv_cls): Conv2d(384, 8, kernel_size=(1, 1), stride=(1, 1))
          (conv_dir): Conv2d(384, 8, kernel_size=(1, 1), stride=(1, 1))
        )
        (5): RPNHead(
          (conv_box): Conv2d(384, 36, kernel_size=(1, 1), stride=(1, 1))
          (conv_cls): Conv2d(384, 8, kernel_size=(1, 1), stride=(1, 1))
          (conv_dir): Conv2d(384, 8, kernel_size=(1, 1), stride=(1, 1))
        )
      )
    )
    (rpn_acc): Accuracy()
    (rpn_precision): Precision()
    (rpn_recall): Recall()
    (rpn_metrics): PrecisionRecall()
    (rpn_cls_loss): Scalar()
    (rpn_loc_loss): Scalar()
    (rpn_total_loss): Scalar()
    (align_and_aggregation_module): Align_Feature_and_Aggregation(
      (embed_keyframe_conv): Conv2d(128, 64, kernel_size=(1, 1), stride=(1, 1))
      (embed_current_conv): Conv2d(128, 64, kernel_size=(1, 1), stride=(1, 1))
      (align_feature): AlignFeature()
      (correlation): Correlation()
      (aggregation): Aggregation(
        (conv1): Conv2d(128, 64, kernel_size=(1, 1), stride=(1, 1))
        (conv2): Conv2d(64, 32, kernel_size=(3, 3), stride=(1, 1), padding=(1, 1))
        (conv3): Conv2d(32, 1, kernel_size=(1, 1), stride=(1, 1))
      )
    )
  )
)
2019-06-06 23:01:08,378 Training INFO: No checkpoint found. Initializing model from scratch
2019-06-06 23:01:08,378 Training INFO: extra arguments: {'iteration': 0, 'epoch': 0}
2019-06-06 23:01:08,378 Training INFO: total training steps: 100078
2019-06-06 23:03:44,848 Training INFO: Metrics for task: ['car'], saved to: nusc_sequence_lr004
…
