…
        (18): ReLU()
      )
    )
    (deblocks): ModuleList(
      (0): Sequential(
        (0): DefaultArgLayer(128, 128, kernel_size=(1, 1), stride=(1, 1), bias=False)
        (1): DefaultArgLayer(128, eps=0.001, momentum=0.01, affine=True, track_running_stats=True)
        (2): ReLU()
      )
      (1): Sequential(
        (0): DefaultArgLayer(256, 128, kernel_size=(2, 2), stride=(2, 2), bias=False)
        (1): DefaultArgLayer(128, eps=0.001, momentum=0.01, affine=True, track_running_stats=True)
        (2): ReLU()
      )
    )
    (tasks): ModuleList(
      (0): RPNHead(
        (conv_box): Conv2d(256, 18, kernel_size=(1, 1), stride=(1, 1))
        (conv_cls): Conv2d(256, 2, kernel_size=(1, 1), stride=(1, 1))
        (conv_dir): Conv2d(256, 4, kernel_size=(1, 1), stride=(1, 1))
      )
      (1): RPNHead(
        (conv_box): Conv2d(256, 36, kernel_size=(1, 1), stride=(1, 1))
        (conv_cls): Conv2d(256, 8, kernel_size=(1, 1), stride=(1, 1))
        (conv_dir): Conv2d(256, 8, kernel_size=(1, 1), stride=(1, 1))
      )
      (2): RPNHead(
        (conv_box): Conv2d(256, 36, kernel_size=(1, 1), stride=(1, 1))
        (conv_cls): Conv2d(256, 8, kernel_size=(1, 1), stride=(1, 1))
        (conv_dir): Conv2d(256, 8, kernel_size=(1, 1), stride=(1, 1))
      )
      (3): RPNHead(
        (conv_box): Conv2d(256, 18, kernel_size=(1, 1), stride=(1, 1))
        (conv_cls): Conv2d(256, 2, kernel_size=(1, 1), stride=(1, 1))
        (conv_dir): Conv2d(256, 4, kernel_size=(1, 1), stride=(1, 1))
      )
      (4): RPNHead(
        (conv_box): Conv2d(256, 36, kernel_size=(1, 1), stride=(1, 1))
        (conv_cls): Conv2d(256, 8, kernel_size=(1, 1), stride=(1, 1))
        (conv_dir): Conv2d(256, 8, kernel_size=(1, 1), stride=(1, 1))
      )
      (5): RPNHead(
        (conv_box): Conv2d(256, 36, kernel_size=(1, 1), stride=(1, 1))
        (conv_cls): Conv2d(256, 8, kernel_size=(1, 1), stride=(1, 1))
        (conv_dir): Conv2d(256, 8, kernel_size=(1, 1), stride=(1, 1))
      )
    )
  )
)
2019-05-26 12:30:29,952 Training INFO: Using SyncBn
2019-05-26 12:30:30,125 Training INFO: No checkpoint found. Initializing model from scratch
2019-05-26 12:30:30,125 Training INFO: extra arguments: {'iteration': 0, 'epoch': 0}
2019-05-26 12:30:30,125 Training INFO: total training steps: 35162
2019-05-26 12:31:47,394 Training INFO: Metrics for task: ['car'], saved to: nusc_output
…
